Results/mlp_model.pth (torch, 185484 bytes, 15 tensors)

layers.0.weight f4 [256, 7]
00000000: 0e26 583f 4ba0 c5bd c303 35bd 9077 fbbe
00000010: 489a ebbf 6216 203e c719 023c abd9 c9bf
00000020: d187 36bd 16ec 1d3e 001e 073d 8d4f cb3e
00000030: 89af 8ebe a6a2 38bc 29de d33f eda6 4e3e
00000040: ffdf 13bd 02b5 1b3e daec 04bf 22f8 8cbe
00000050: 8355 193c 99aa d1be cc81 123e c9a0 973d
00000060: 54fa d5bc f9ef 9fbf 59e5 88be 592c fdbc
00000070: 4fdb 13bf 4d6a b9bd b27d 26bf 518d 963c
00000080: 4e9c e0be fe3b 033f 1f8f c83b 4958 08bf
00000090: a559 f339 bd06 8ebc becc 2dbb 60b8 a7bf
000000a0: d36c 573d 7895 e33a 090e 0a3e f331 b2be
000000b0: 238b 4abf d0ff 36bf 145f a83d 0782 cf3d
000000c0: ffbe e03e 23d2 603f a52b 853e d18a 8dbe
000000d0: 6bed 7c3e 4757 c13e 1023 0cbf 280d 28bc
000000e0: 843f df3e f218 54bc f839 c3be d62a 863c
000000f0: bd7f 9f3f 2f05 543e 60f9 babb 5e4b 0b3f
00000100: 4de8 883e 6e69 78bf 24d9 233e 0c14 943e
00000110: 5e97 68be 6b90 53bd 04f7 fd3e f12a 723e
00000120: 280a bd3e 25a3 163f 7b04 c13e ea6a 0ebf
00000130: ac85 99bc a0c2 15bf 9e2f dbbd 7ffa 033f
00000140: 1ae3 3cbf c8a7 c33d 207e 33be 8631 dbbc
00000150: b85e 0c3f 7806 a3bc cd94 663c 84a9 86be
00000160: 774d 963f d831 bbbd e262 2c38 5e4c 00bf
00000170: 1b12 a23e 5d3a f4be 3c94 afbd 288c 4bbf
00000180: 0fa9 253e 0536 dcbe a576 1c3f 4641 323f
00000190: 4559 fd3e 3465 edbd 1f84 7f3b 5726 8cbd
000001a0: a721 603c 3dae 2bbd 4e84 d0be d28a 2ebf
000001b0: 90fc 86bf 641b 033f 9771 253e 4a87 ea3e
000001c0: 3ac0 febe d612 b23a 0bd4 15ba 7482 9bbe
000001d0: 4d00 9bbf dfeb d33c 6962 bebc 6509 103f
000001e0: 43f6 eebe c7c2 b13e 077a 60bc 44b8 4e3f
000001f0: ad96 aabe be1f 60bc b75b d9bf d5e7 59bd
00000200: b75e 2c3f 7129 3b3b e7f9 703e d307 e7bd
00000210: 2b37 88bd eb13 0bbf 4011 903b bf3d 0e3e
00000220: 7841 81bc d01f 8abf 08c1 9f3c 7d1e e73c
00000230: 97ef bcbe 2b70 d2bd 2e8b efbe 414a 60bf
00000240: d1c6 6dbf cbd9 6a3e e1bf cb3e 89dd d0be
00000250: 4ec1 64bd 7feb a73d 7d0a e6be ee53 7fbf
00000260: 8cd9 b4bd 6b65 1abd 9496 debc 5f33 90bc
00000270: 7856 193d fec0 ec3b 5813 29c1 27af 723c
00000280: 5b0a d1bb 9cc5 083e 8544 143f 903a 433f
00000290: 3991 01bf 8539 1cbf c538 1d3d 53c9 8a3c
000002a0: 19f2 0a3f 5cd5 1bbe e0fa c6be 708c 8bbf
000002b0: 0b47 5f3f 346c 96be 5e24 d53d 0524 59bd
000002c0: af18 293f 7969 15bf c46d 8d3e e301 4dbf
000002d0: 9ee9 f93e d2b6 a6bc 7c7d dabf 1dae d6bc
000002e0: 01e5 08be f58e d03c 77b8 1d3f ee6a b43d
000002f0: 0af2 4f3c c258 fb3e 5148 523d 3f90 abbe
00000300: ff08 143c f593 a63f ea4d 413e 434d 873c
00000310: 3679 45bc bb5d 4dbc ecd6 1d3d 3f46 9abc
00000320: 5bbb 28c1 460c 9cbc 27f2 46bc 11d9 79bd
00000330: 44df 063f 8c83 483f 687f 02bf 1de3 56bf
00000340: b965 a53c 68bd 63bc b4cc 8abd e0df 05bc
00000350: ffc3 f3bb 9119 f1ba a561 eec0 4c41 1b3d
00000360: 2efa bb3c 7257 bf3e 73e3 933e cb3a 1bbf
00000370: 6f47 303e ad21 893e d985 00bb d736 27bf
00000380: 9842 6dc0 eb79 a83d 0617 b33e a062 87bc
00000390: 26ff dcbe 197d b5bd b1d9 12bd 6bb6 6cbf
000003a0: d1f0 84be 8d21 86be b785 053b 4de3 c33e
000003b0: af08 08bf 5147 71bc 2efa 043e 02d3 213f
000003c0: af14 983e 7812 c1bc f418 b6be 1fc3 a6bc
000003d0: 798e 473f 7364 15bd 5e6a ec3e be59 b4bd
000003e0: 5da4 debe 806d 8abb 7695 903e fb56 813f
000003f0: eef0 17bf d8d4 eb3e 4a2b 1cbe 12f1 08bf
0.84433067 -0.09649714 -0.04419304 -0.49114656 -1.8406458 0.15633538 0.007940716 -1.5769552
-0.04456312 0.15422091 0.032987595 0.3970913 -0.27868298 -0.011269247 1.6552173 0.20180865
-0.03610229 0.15205768 -0.51923907 -0.2753306 0.0093587665 -0.40950468 0.14307326 0.07403714
-0.026120342 -1.2495109 -0.26737478 -0.030904936 -0.57756513 -0.090534784 -0.65035546 0.018377932
-0.4386925 0.51263416 0.006120577 -0.5325971 0.00046415362 -0.017337197 -0.002651974 -1.3103142
0.052594017 0.0017363271 0.13481916 -0.34803733 -0.79118556 -0.7148409 0.0822126 0.101322226
0.43895718 0.87820643 0.2600986 -0.2764497 0.24699943 0.377619 -0.54741 -0.010257043
0.43603146 -0.012945401 -0.38130164 0.016377848 1.2460858 0.20705102 -0.0057059973 0.54411876
0.2673973 -0.9703587 0.16000801 0.28921545 -0.22713992 -0.0516514 0.4960252 0.23649193
0.3692181 0.5884269 0.3769873 -0.5563189 -0.018740498 -0.585001 -0.10702442 0.515541
-0.7378403 0.09553486 -0.17528582 -0.026757013 0.5483203 -0.019900545 0.014073563 -0.26301205
1.174239 -0.09140366 4.1100087e-05 -0.5011653 0.31654438 -0.47700778 -0.08573195 -0.79510736
0.16177772 -0.43009964 0.6111854 0.6963085 0.4948217 -0.115915686 0.0038988662 -0.0684325
0.013679898 -0.041914213 -0.4072594 -0.68180573 -1.0545826 0.5121367 0.16156612 0.45806342
-0.49756032 0.0013585936 -0.0005715496 -0.30372965 -1.2109467 0.025869308 -0.023240285 0.56264335
-0.46672258 0.34718916 -0.013700969 0.8074992 -0.33318081 -0.013679443 -1.6981114 -0.053199608
0.67332023 0.0028558637 0.2353283 -0.11280789 -0.066511475 -0.5432727 0.0043965876 0.13890742
-0.015778288 -1.0790958 0.019501224 0.02821278 -0.36901543 -0.102753006 -0.46785873 -0.876133
-0.92881495 0.22934644 0.3979483 -0.40794018 -0.055848412 0.08199214 -0.44929877 -0.9973744
-0.08830556 -0.037694376 -0.02717141 -0.01760262 0.03743598 0.007225155 -10.567223 0.014812267
-0.0063794083 0.13356632 0.5791705 0.76261234 -0.5061222 -0.6102527 0.038384218 0.016941702
0.5427566 -0.15218109 -0.38863277 -1.0902233 0.8721778 -0.29379427 0.10407327 -0.053012867
0.6605329 -0.58364064 0.27622807 -0.80081004 0.48811048 -0.020350847 -1.7069545 -0.02620607
-0.13368608 0.025458792 0.61609596 0.08809458 0.012691984 0.49091154 0.051338498 -0.3350849
0.009035348 1.3013903 0.18877378 0.016516333 -0.012052825 -0.012534554 0.038535044 -0.018832324
-10.545741 -0.019048821 -0.012142695 -0.060998026 0.52684426 0.78325725 -0.50975657 -0.839403
0.020190107 -0.013900138 -0.06777325 -0.008171052 -0.007439136 -0.001839446 -7.4494195 0.03790407
0.022946443 0.37371403 0.28884467 -0.60636586 0.1721475 0.26783505 -0.001961103 -0.65318054
-3.7071896 0.08226379 0.34978503 -0.01652652 -0.43163413 -0.08861751 -0.035852138 -0.9246585
-0.25964978 -0.26197472 0.002037389 0.38259354 -0.5313825 -0.014726476 0.12986061 0.632126
0.2970328 -0.023568377 -0.35565913 -0.020356713 0.7795177 -0.03647275 0.46174902 -0.088061795
-0.43484774 -0.004224479 0.2823903 1.0104669 -0.59352005 0.46060824 -0.15250888 -0.53492844

layers.0.bias f4 [256]
00000000: c7dc 00be ce2f 5cbe 8e3e 2f3e 05cd af3c
00000010: 6dd5 eabd e697 eb3c 4bcf e6bd 26e2 893e
00000020: 083c 7ebd 39b5 163e 7a26 55be d117 8abe
00000030: ca37 473e c850 1bbd a7b8 aebe eed6 623e
00000040: 635d 623d b838 4a3e 2b80 06bd 3746 aa3e
00000050: 1781 b5be fe71 37be da41 a63e caed adbe
00000060: 2557 8cbd 3cc8 9d3d c015 69bd d889 a93d
00000070: 0731 04be eae6 26be c5fa 6fbe a68e 9e3e
00000080: bbdd 7e3e 99fb 7e3e 195f 4abe 63b0 6e3e
00000090: 5797 91be 4186 a23e dfba 93be 83c7 6cbe
000000a0: ac4e 38bd 3e3b a13e d440 2ebe b1f1 ee3c
000000b0: f4e2 c43e df4c cb3e 7577 bd3e de56 59be
000000c0: 7046 903e 6561 523e 6d04 8ebc ddae 403e
000000d0: ca6d dc3c 187b 09be 7131 b3be dbcb e73c
000000e0: d3c1 433e c0df e63d dae7 98bc db66 72be
000000f0: 1e8d 38be 216e 08be 6b8f 1dbe 9ba3 87be
00000100: 7ba1 f5ba aa87 5c3e 50a4 6c3e 1bf0 e6bd
00000110: 9429 e8bd 3b2a 1b3e 81e2 8a3e 345c c43b
00000120: 2b9a b4bd 9093 a1be 6601 9e3d 785a 24be
00000130: 4eee 8dbe 87bf 6cbe 22b3 f03c 7507 3cbd
00000140: a2a3 20be a46e 693e 2b0b 7b3e 0343 373e
00000150: ec46 afbe 920b ebbe 3df7 3e3e 16a9 773e
00000160: bb6a 693e 8339 7d3e 7f0c 5c3e 9eed cd3e
00000170: 1f10 b6bc d889 4c3e 79f5 41be a2a9 9fbe
00000180: 1a27 b7be e95b dd3d bee1 7ebe 8bcc b13d
00000190: aee9 a33d 3b0a 5fbe ab2e 99bd 768d 5c3e
000001a0: f325 6dbc 4105 9dbd d990 0b3d 3b39 68be
000001b0: 2bf8 ad3e f580 da3b 7c08 92be 63a0 9e3e
000001c0: 3343 3fbe 5877 3ebe 46b4 aa3e 62b3 833e
000001d0: ebd1 983c 5548 723e e8ae a73e 3154 5dbe
000001e0: ff6a b73e eb74 81bd 5601 843d 61ab 0cbf
000001f0: f3f5 883e 3227 7cbe d305 1c3d 5dee d63c
00000200: 21e5 5a3d 5780 b0be bfc8 6fbe f8a0 403d
00000210: 7524 793e 2e40 033e 7ebe 87bd 8fe1 373e
00000220: 58c1 30bd dfaf adbe f334 bf3e e1bf 96bd
00000230: 1faf fbbd eba5 883e 57f5 803e 4746 c3bd
00000240: 8298 bbbe 7211 83be 60cf 3fbe 29ef d4bd
00000250: 991d 44be c36b 3a3e 30ad 873e 179b 643e
00000260: 510a c8bc 6145 c33e a39e d6bd 053b 383e
00000270: 6d94 3e3e e777 a9bd 0aae ba3e b975 61bb
00000280: 1dbc a2be ee24 0fbf 7fa7 5c3e 92b3 de3e
00000290: 711b 133e dfab d9bd 576e 20be f1a1 42be
000002a0: eabe 32be 6511 663c 2611 c63e 4e61 793d
000002b0: f80e b13e c12b d23c 2c32 883e b796 a83e
000002c0: 414b 823e f86f 20be df36 f0bd 58d9 543e
000002d0: a849 893d 986f 79be 11e5 89bd 56d1 8e3e
000002e0: 4703 763e 3de7 66be cb5b ecbd c995 72be
000002f0: ab9a dbbe c144 4b3e 5ecc 1ebe dd31 b43d
00000300: 884f 91be fe89 bb3d 0fc4 b53e 0687 82be
00000310: 38b3 5d3d 88da 55bd b3f0 d9bd 0698 b93e
00000320: bf02 c53e 8e6e ebbd 3463 a8be d7fd 3c3e
00000330: 2115 b63e 81d6 2c3d 086a fbbd 64a5 b53d
00000340: ccd8 c5be d4c9 d23d b83c b5be cffc bd3e
00000350: 54c9 2d3c f756 b8be 08ac 903d 013d f33d
00000360: d5c2 603e 5f84 52bd f3f9 a3be de42 243e
00000370: 1ff8 34be 2bbb 58bd babf d4bd ad91 7b3e
00000380: 31ce 63be 6753 4c3e a3c9 91bc 1e00 713e
00000390: 44e0 113e fccb 86be 0140 adbe 729b 983d
000003a0: 2657 a43e 513c 4abe fc9d f9bd 1b75 293e
000003b0: fae0 ecbd c250 4bbe dcdf d23d 0b42 ba3d
000003c0: 59af c4be 3267 4e3e 89bb 233c cf8a 6b3e
000003d0: d27e 563e 7c45 4fbb 1558 5a3d a5bc 33be
000003e0: 6ae2 8f3e 4735 9f3e 02bb 923e 3651 8e3e
000003f0: 1064 cbbd 968a 65be a04a 37bd 8976 34be
-0.1258422 -0.21502611 0.17113706 0.021460066 -0.11466489 0.028758954 -0.11270007 0.2693035
-0.06206897 0.14717568 -0.20815459 -0.26971295 0.19454876 -0.037918836 -0.34125254 0.22152302
0.05526484 0.19748199 -0.032837074 0.33256695 -0.3545005 -0.17914578 0.32472116 -0.3397048
-0.06852559 0.07704207 -0.056905508 0.08278245 -0.12909327 -0.16299024 -0.23435505 0.30968207
0.24889271 0.24900664 -0.1976284 0.23309474 -0.28435776 0.31743053 -0.2885351 -0.23122983
-0.044996902 0.3149051 -0.17016917 0.029167982 0.38454401 0.39707085 0.370052 -0.21224543
0.2817874 0.20544966 -0.017336095 0.18816705 0.02690782 -0.13425863 -0.34998658 0.028295448
0.19116907 0.11273146 -0.018665243 -0.23672049 -0.18022582 -0.13323261 -0.15386741 -0.2649201
-0.0018740142 0.21536127 0.23109555 -0.11276265 -0.113360554 0.15152828 0.27125934 0.005992437
-0.08818468 -0.31557894 0.077151105 -0.16050136 -0.27720875 -0.23119937 0.029382292 -0.04590555
-0.15687421 0.22796112 0.24515979 0.17896657 -0.34233797 -0.45907265 0.18649001 0.24185595
0.2279462 0.2472897 0.21489142 0.4022035 -0.022224484 0.19974458 -0.18941297 -0.31184107
-0.3577202 0.10808546 -0.24890801 0.086815916 0.08003555 -0.21781246 -0.07479604 0.21538338
-0.01447438 -0.07667018 0.034073684 -0.22678082 0.339784 0.006668205 -0.28522098 0.3098174
-0.18677978 -0.18600214 0.33340663 0.25722796 0.018654784 0.23660405 0.3275063 -0.21614148
0.3582382 -0.063211285 0.06445567 -0.54949003 0.26750144 -0.24624327 0.038091492 0.026236707
0.05344117 -0.34472916 -0.23416422 0.04702851 0.24330314 0.12817451 -0.066281304 0.17957138
-0.043153137 -0.33923241 0.37345085 -0.07360817 -0.12289261 0.26689085 0.2518718 -0.09534889
-0.36639792 -0.25599247 -0.18731451 -0.10397179 -0.19151916 0.1820517 0.2649932 0.22324787
-0.024418982 0.3813887 -0.10479476 0.17991264 0.18611307 -0.08274823 0.36460906 -0.0034402444
-0.31784144 -0.55915725 0.2154827 0.43496376 0.14365937 -0.10628485 -0.15667091 -0.19007088
-0.1745564 0.014042233 0.38684958 0.060883813 0.34581733 0.02565563 0.26600778 0.32927486
0.2544804 -0.15667713 -0.11729216 0.20786035 0.06703502 -0.24358976 -0.06733144 0.27894086
0.24024688 -0.22549148 -0.115409456 -0.23689951 -0.4289144 0.19850446 -0.15507647 0.08798573
-0.2838099 0.09157179 0.35501143 -0.2549364 0.054125994 -0.05221036 -0.10641613 0.36248797
0.38478658 -0.11495696 -0.32888186 0.18456207 0.35562995 0.042196754 -0.12276083 0.088694364
-0.38641965 0.10292402 -0.35397887 0.3710694 0.010607082 -0.3600385 0.07064062 0.1187687
0.21949323 -0.05139577 -0.32026634 0.16041133 -0.17672776 -0.052912872 -0.103881314 0.2456729
-0.22246625 0.1995369 -0.017796343 0.23535201 0.14245707 -0.26327503 -0.33837894 0.07451524
0.3209774 -0.19749571 -0.12188336 0.16548578 -0.115663484 -0.19855025 0.10296604 0.09094628
-0.3841503 0.20156553 0.009993442 0.2300217 0.20946816 -0.003162711 0.053306658 -0.17552431
0.28102428 0.31095335 0.286583 0.27796334 -0.09931195 -0.22416148 -0.044748902 -0.17623343

layers.1.weight f4 [256]
00000000: e8e9 633f 648c 4d3f e004 3a3f ccdc 4d3f
00000010: 99d1 2c3f 0981 253f 8753 2b3f 7f96 be3e
00000020: bda0 413f e8c1 963e aa89 493e 4823 0f3f
00000030: 8cbb 313f caec 1d3f a131 d43e 0b56 4a3f
00000040: 8848 0a3f 9b65 d73e ffcf f23e f585 bb3e
00000050: bded 093f 4e1f 1f3f 65a6 a83f a6c1 453f
00000060: 4aa5 033f 9177 fb3e 6662 1c3f 1834 423f
00000070: e2bb aa3f d95b 883f f6f2 973f 10c6 e33e
00000080: 0167 033f 92b7 d83e 2a6a 0f3f 9e61 213f
00000090: 2325 383f f132 353f c5fc 433f a2ca bc3f
000000a0: e53e 383f 4f05 463f 157f 473f a786 6a3f
000000b0: 94f4 933f 8544 cf3e efe5 1f3f 7821 223f
000000c0: c1a9 0f3f e902 563f 4f80 ad3f a7be 333f
000000d0: 68bf 573f 353f 0d3f 43f0 243f c57c 123f
000000e0: 706b ec3e 9895 683f 26bd 323f f50e ba3f
000000f0: 5e79 353f 6d36 c83f b8e8 153f e002 273f
00000100: b8c7 e43e b326 d93e 114b 093f f231 393f
00000110: 74f7 303e 6f88 1f3f 3a8b b13f 6c3e b83e
00000120: 995e 0a3f 6156 0c3f f304 803f cac1 be3e
00000130: 0dc2 253f b57c 103f d644 2c3f 14d5 093f
00000140: 453e 0c3f 2769 1b3f e365 403f 0204 b63f
00000150: 0698 263f c4ed 933f c948 123f 1ce0 0f3f
00000160: fc88 803e 1454 443f deb3 e33e 5179 3a3f
00000170: c112 a03e 4241 3c3f c03c 043f 7a93 fd3e
00000180: 24db 673f 7704 e93e 79f2 203e 1848 363f
00000190: 85d6 2c3f 59df c43e aa3a 4e3f 9dc5 8d3e
000001a0: a92c 293f 813e 9c3e 045a 753e 37c5 5e3f
000001b0: 9191 d83e 7902 f83e 7c7e 243f 7f8c ae3f
000001c0: 61fe 2b3f a97e b53e 23d5 023f 1d74 283f
000001d0: b2bc 163f 42e8 853f 9e89 863f 17c8 173f
000001e0: d87c c13e b192 d33e 767c 9f3f fdd0 553f
000001f0: b939 353f 51b4 173f 372a f13e aa20 e83e
00000200: fab8 993e f95e 823f 31d8 273f d161 9a3f
00000210: c8ad 593f 1457 fd3e b207 c43e ecab 353f
00000220: 478a 053f cc9e 013f 533b 3c3f d83b 153f
00000230: 6c41 1f3f 48ac 863f 77cc 433f d7f8 443f
00000240: c735 833f 8143 bc3f fab4 043f 98d2 493f
00000250: 32be 643f d2d3 193f 5c59 c23e b205 203f
00000260: 1474 b03e 8955 023f 4ecf c83f 69b5 853f
00000270: 4e49 3b3f 3eb0 8a3e 9b7b 703f 034f 2c3f
00000280: f9fc a83e ce2d 9c3f 2abb 333f fed1 ce3f
00000290: 3a61 183f 2920 1b3f cb22 603e b746 883f
000002a0: 3841 053f b8ba 433f 9f76 4f3f 8df2 643f
000002b0: c6b4 433f 18a8 ac3e 487d b53f 8c32 5b3f
000002c0: d412 5b3f 0b52 943f a7ad 0d3f 49de 233f
000002d0: 7826 e73e 88f1 033f 18ef 8f3e 0439 253f
000002e0: 7985 1a3f 6dd6 0f3f b041 333f 9db1 183f
000002f0: 96f5 123f a19f 583f dc5f 143f 25de 5b3f
00000300: f564 8d3e ad53 443f a42a 633f 6ed2 7a3f
00000310: ee62 183f 7926 bc3f a3fa 533f 5d2a 133f
00000320: a00e c33f ec6f 103f d157 5b3f 0f36 043f
00000330: 3ba6 e03e 002e 4a3e bf98 433f d35e d23e
00000340: 7027 f93e ef2b 4f3f b6a0 0d3f ebe8 813f
00000350: adca 383f 9f2a 623f 117d af3f af4d 2c3f
00000360: 5888 9a3f 71be 383f 6d99 d13f 28c1 433f
00000370: 1e18 6e3f 8936 283f f67f 033f 33f6 343f
00000380: 931f 783f 87ae 2d3f 915b 093f 945d 053f
00000390: bf75 2f3f b51a 273f fe79 283f be4f a63f
000003a0: 4ca7 453f c417 263f b2d1 4f3f 0420 123f
000003b0: f011 053f ea07 b53f 2295 563f 0ef1 0d3f
000003c0: 4062 843f f8e6 1d3f 809d c63e 46df 4c3f
000003d0: 93a2 323f 3149 023f 683f 253f 3a59 863e
000003e0: db86 973f 7544 1c3f aa2e 0d3f 24fd f43e
000003f0: 6350 533f d22d 6a3f f615 003f 9d35 963f
0.8902879 0.80292344 0.7266369 0.80415034 0.6750732 0.6465002 0.6692433 0.37224194
0.7563589 0.29444814 0.19681421 0.5591321 0.694268 0.61689436 0.41444114 0.7903754
0.54016924 0.42069706 0.47424313 0.3662564 0.53878385 0.6215714 1.317578 0.7724861
0.51424086 0.4911466 0.61087644 0.7586074 1.3338587 1.065303 1.1871021 0.44487047
0.51329046 0.42327553 0.5602137 0.63039577 0.71931666 0.70780855 0.7655757 1.4749339
0.7197097 0.7735185 0.77928287 0.91611713 1.1559014 0.40481964 0.62460226 0.6333232
0.561184 0.8359819 1.3554782 0.7021279 0.8427644 0.5517457 0.6442911 0.57221633
0.46175718 0.9085326 0.6981987 1.4535815 0.70888317 1.564161 0.58558226 0.6523876
0.44683623 0.42412338 0.5363017 0.72341835 0.17281896 0.62317556 1.3870614 0.35985124
0.54050595 0.54819304 1.000151 0.37257224 0.64749223 0.5644029 0.67292535 0.53840756
0.54782516 0.60707325 0.75155467 1.4219973 0.6507572 1.1556935 0.5714231 0.5620134
0.2510451 0.76690793 0.44473165 0.72841364 0.31264308 0.73537076 0.516552 0.49526578
0.9056876 0.4551122 0.15717496 0.71203756 0.6751483 0.3845165 0.80558264 0.2768983
0.6608377 0.30516437 0.2396012 0.87019676 0.42298558 0.48439386 0.642555 1.3636626
0.67185026 0.35448197 0.5110647 0.65802175 0.58881676 1.0461504 1.0510747 0.5928969
0.3779056 0.41322854 1.2459857 0.83522016 0.707912 0.59259516 0.4710252 0.4533742
0.30023938 1.0185233 0.65564257 1.2061101 0.85030794 0.49480498 0.3828712 0.70965457
0.5216412 0.5063293 0.7352802 0.5829444 0.622092 1.0521326 0.76483864 0.769422
1.0250787 1.47081 0.5183865 0.78836966 0.89352715 0.6008884 0.379588 0.6250869
0.3446356 0.50911766 1.5688264 1.0445987 0.7315873 0.27087587 0.93938607 0.6730806
0.33005503 1.2201478 0.70207465 1.6157835 0.59523356 0.6059595 0.21888272 1.064658
0.5205264 0.76456785 0.81040376 0.89432603 0.76447713 0.33721995 1.4178858 0.85624003
0.85575604 1.1587538 0.553431 0.64011055 0.45146537 0.5154042 0.28112102 0.64540124
0.60359913 0.5618656 0.70022106 0.59646016 0.57405984 0.84618574 0.5795877 0.8588584
0.27616087 0.7669018 0.8873694 0.9797734 0.59525955 1.4699241 0.82804316 0.57486516
1.5238838 0.5642078 0.8568087 0.51644987 0.43876824 0.1974411 0.7640495 0.4108797
0.486629 0.8092641 0.5532335 1.0149206 0.7218426 0.88346285 1.3710042 0.67306036
1.2072859 0.7216559 1.6374947 0.7646661 0.9300555 0.65708214 0.5136713 0.7068817
0.9692318 0.6784443 0.53655344 0.52095914 0.6853904 0.65275127 0.65811145 1.2993085
0.772084 0.64880013 0.81179345 0.570801 0.51980495 1.414304 0.8382131 0.55445945
1.0342484 0.61680555 0.38792038 0.8002819 0.6977932 0.5089293 0.64549875 0.2623995
1.183803 0.6104196 0.5514933 0.4784938 0.82544535 0.91476166 0.5003351 1.1735111

layers.1.bias f4 [256]
00000000: d5cb 00bf 5d86 5cbf dbb8 eebe 03d1 ffbe
00000010: 2e52 49bf 460a 40bd 0112 09bf 4d40 4bbe
00000020: aaf7 193d 0709 b3be 3434 bfbd 087a 3cbf
00000030: 8bed e53c 5f7d 14bf 099c 6abe 7c4e 16bf
00000040: 8c42 10be 0b6e 0ebe d3ed 1abf 2a9a 21bd
00000050: ea36 f4be 21e4 93be 21fb 1bbf fe5d 11bf
00000060: 6ab4 5fbe 2326 16bf c5e1 0dbf ed73 87bd
00000070: 1c6b 21bf 1e78 3fbf 5fc2 0abf f2a2 d6be
00000080: e5c0 11bf 026b 1cbe 3271 0ebf 7d5f 3dbf
00000090: 8f60 49bf d8d2 2fbf 7a12 89be 474a 2fbf
000000a0: 472f d9be e4bb e8be 98b8 0fbf cbf1 1abf
000000b0: f68f 25bf 3450 5bbe ee74 febe 9a83 e6be
000000c0: 7ed0 cfbe 1f31 3d3c 4e68 1dbf 9ca3 05bf
000000d0: 4b14 223e d013 3dbf cab9 43bf fd09 c5be
000000e0: 39db 84be 6a51 eebe 7960 c9be d5e6 2abf
000000f0: 42c0 7fbf 9a41 42bf b1cb 90be 9a47 28bf
00000100: 25b0 4bbe e618 2abe 7fba 4cbe 8388 03bf
00000110: 4960 e0be d9f4 f4be 52f1 24bf 6d99 88be
00000120: 5ecb afbe 62fc f5be 38fa 37bf 0581 87be
00000130: 8f9a 94be 7909 0ebf cdd6 883d d538 d6be
00000140: 9357 bbbe 4c4a 36bf 646c e8be 80f6 2bbf
00000150: 48cf 21bf 61e2 5fbf 7d32 18bf bad5 1ebf
00000160: 6f50 5cbe 5f11 13bf 2c6e f4be bcbe 40bf
00000170: b382 25be 2478 11bf b82c 83be afb6 cfbe
00000180: 7e23 05bf 5dad 9cbe 8285 2cbd 7bd4 2ebf
00000190: 9631 27bf 0c53 01be 7c5c 79be c84a be3c
000001a0: 8ba5 70bf fe6e aa3d 012e 723c 2b28 01bf
000001b0: c8be aabe 6152 20bf e8a0 9ebe d389 21bf
000001c0: 593d 3cbf 1682 f6be ead9 56bf 31c9 23bf
000001d0: 9f95 8abe 71be c03d 392f 1dbf f259 30bf
000001e0: bbf7 c3bd 97de e3be 679b 12bf 128e 09bf
000001f0: 198d 893d c552 a4be c3af 47bf 8bd5 c4bc
00000200: 0262 a5be b630 66bf 434a 42bf 043d 5ebf
00000210: 57b8 8ebf 0844 ebbe 1d31 b9bd 26ce e9be
00000220: cc97 17bf 431f 1abf c693 52bf 8649 e8be
00000230: bf7e 62bf 38ea 44bf 5cea d7be 58f9 ddbe
00000240: 2141 67bf a4e0 2cbf 0678 f4be 970e 03bf
00000250: c9a3 99bf bdf2 41bf 6aef 69be 7c88 86be
00000260: 80c3 d9be d6b2 92be 720d 45bf 69bf 4fbf
00000270: 0b6b f4be f382 73be c688 b03d aeb6 adbe
00000280: baea 97be b168 6cbf 6638 0cbf 13f3 46bf
00000290: 4870 11bf e9df 72be 0bbd 04bf d4be 4dbf
000002a0: 5f9d 0dbe ddc8 51bf 799f 60bf e5bd bb3d
000002b0: 2d75 c9be b9cc 67be f833 29bf f0b1 813b
000002c0: 565f e1be 9806 85bf ac57 12bf 8b2c 90be
000002d0: d3d8 48be 0d2f abbe 8460 90be 928b 16bf
000002e0: 4e23 1abf 72c0 15bf e175 45bf 15b2 33bf
000002f0: 3da9 4fbd a46d 65bf 86cf 18be baeb 09bf
00000300: 17a6 91be fc9c 02bf 9566 13bf 0812 1cbf
00000310: 7828 0abf 8b6a 34bf a5c1 37bf 981f 06bf
00000320: 115c 39bf b72c 04be cc72 a3bb 94e9 a9be
00000330: d7cb 85be 1ec7 24be a759 05bf 808f afbe
00000340: f13e 5dbf c1a6 19bf c074 04be 6d53 1fbf
00000350: 6ba3 09bf 1aea 14bf bb71 993e a715 c0be
00000360: df96 0ebf 50a8 35bf 4f6e 4abf a46c 10bf
00000370: a339 31bf 940e 6abf 92e9 c3be 6b08 ddbe
00000380: 3fb7 54bf 7dd5 ac3d 65b0 f1be 6049 a9be
00000390: 5b31 5cbf 44de d7be 4403 5bbf f234 23bf
000003a0: 7901 993d 3241 0ebf 707e 40bf 9033 54bf
000003b0: 9120 91be fe39 24bf 4b58 35bf e305 0bbf
000003c0: 4ed0 6dbf f6b8 21bf e029 b4bd cbaf 9bbe
000003d0: 33a8 53bf 8b88 1dbe 8a07 08bf e74f bebe
000003e0: f13d 0bbf 807c 9ebe 54fa e2be f0c2 81be
000003f0: 6dd3 15bf 369c 1fbf bebb e1bd 98f8 82bf
-0.50311023 -0.8614252 -0.4662541 -0.4996415 -0.7864102 -0.046884798 -0.53543097 -0.19848748
0.037589706 -0.34967825 -0.09336129 -0.73623705 0.02806737 -0.580038 -0.22911085 -0.5871351
-0.14087886 -0.13909166 -0.6051914 -0.039453663 -0.47698146 -0.28884986 -0.6093007 -0.56784046
-0.21846166 -0.5865194 -0.5542262 -0.06613908 -0.6305406 -0.7479266 -0.54202837 -0.41921192
-0.5693496 -0.15275195 -0.5564147 -0.7397383 -0.7866296 -0.686811 -0.2677191 -0.68472713
-0.42418882 -0.4545585 -0.5614104 -0.60525197 -0.6467279 -0.21417314 -0.49698585 -0.4502228
-0.40588754 0.011547356 -0.6148728 -0.52202773 0.15828054 -0.73858356 -0.76455367 -0.38484183
-0.25948504 -0.4654649 -0.39331415 -0.6675847 -0.9990274 -0.7588135 -0.28280404 -0.65734255
-0.19891413 -0.1661106 -0.19993018 -0.51380175 -0.4382346 -0.47843054 -0.64430726 -0.26679555
-0.34334844 -0.48044115 -0.7186618 -0.26465622 -0.2902417 -0.55483204 0.06681595 -0.41840234
-0.3659025 -0.7120712 -0.45395195 -0.67173004 -0.6320691 -0.874548 -0.5945204 -0.6204487
-0.21515058 -0.5744838 -0.47740304 -0.7529104 -0.16163139 -0.56823945 -0.25620055 -0.40569064
-0.5200728 -0.30601016 -0.04211951 -0.6829297 -0.6531004 -0.12629336 -0.24351686 0.023229018
-0.940026 0.08321951 0.014781476 -0.50451916 -0.3334868 -0.626257 -0.30982137 -0.6310093
-0.7353111 -0.48146123 -0.8392626 -0.6397887 -0.27067277 0.09411324 -0.6140018 -0.68887246
-0.09568735 -0.4450576 -0.57268375 -0.5373241 0.06716365 -0.32094398 -0.78002566 -0.024027606
-0.32301337 -0.89918077 -0.75894564 -0.8681185 -1.1150006 -0.4595034 -0.09042571 -0.4566509
-0.59216 -0.6020395 -0.82256734 -0.45368594 -0.8847465 -0.7691989 -0.4217099 -0.43354297
-0.90333754 -0.67530274 -0.4774782 -0.5119414 -1.2003108 -0.75761014 -0.22845235 -0.26276004
-0.42531967 -0.28652066 -0.7697364 -0.81151444 -0.47737917 -0.23780422 0.086198375 -0.33928436
-0.2967127 -0.92347246 -0.5477356 -0.7771465 -0.5681195 -0.23718227 -0.51850957 -0.80369306
-0.13829564 -0.8194712 -0.87743336 0.09167079 -0.3934721 -0.22636689 -0.66094923 0.0039579794
-0.44018048 -1.0392637 -0.57165027 -0.28158984 -0.19613962 -0.33434334 -0.28198636 -0.5880672
-0.6021012 -0.58496773 -0.77132994 -0.70193607 -0.050698508 -0.89620423 -0.14922914 -0.53875315
-0.2844703 -0.5102079 -0.575784 -0.60965014 -0.53968 -0.7047507 -0.71779853 -0.5239196
-0.7240611 -0.12907682 -0.00498805 -0.33186018 -0.2613208 -0.16091582 -0.52089924 -0.3428917
-0.86424166 -0.6002007 -0.12935162 -0.6223667 -0.5376498 -0.5816971 0.29969582 -0.3751652
-0.5569896 -0.7095995 -0.7907457 -0.5641577 -0.6922857 -0.91428494 -0.38264138 -0.43170485
-0.8309211 0.08439157 -0.4720489 -0.33063793 -0.8601281 -0.42161763 -0.8555186 -0.63752663
0.07470984 -0.5556823 -0.7519293 -0.8289118 -0.2834516 -0.6415099 -0.7083785 -0.5430586
-0.9289597 -0.63172853 -0.087970495 -0.30407557 -0.82678527 -0.15384118 -0.53136504 -0.37170336
-0.5439139 -0.3095436 -0.4433161 -0.25344038 -0.58525735 -0.62347734 -0.11022137 -1.0232115

layers.1.running_mean f4 [256]
00000000: b45c 0fbe eab8 55be 7e1f 2e3e f36e 8e3c
00000010: 215f f2bd d0ad 9e3c 6117 d5bd 6f14 903e
00000020: 5b1c 58bd 12ac 263e c111 51be 5dad 88be
00000030: 59a8 513e 5e8c 17bd d391 abbe 8d46 6f3e
00000040: 940d 483d 52f4 483e 61d0 0cbd 06fb a53e
00000050: fc89 b4be 1eb2 3bbe 5dc5 7b3e 623c aebe
00000060: 0ea0 4abd d15e a03d 2e95 4cbd 811b bf3d
00000070: 79fe 54be 3fed 28be e276 94be 9b4e a23e
00000080: c24d 803e 684d 843e d408 43be 155b 7a3e
00000090: fc1b 90be a738 a23e c6d7 98be 9eb8 9ebe
000000a0: be91 34bd a2db 9e3e af83 26be 518b 113d
000000b0: 9198 bd3e 8d77 d53e 1515 b73e 0595 57be
000000c0: c1e1 863e 4360 5d3e 2dd4 97bd 8c3a 2e3e
000000d0: f7c8 1d3d 95a8 00be 8c9d b2be 5599 a639
000000e0: 411c 413e f7ba 073e bb69 dabc 0b82 99be
000000f0: 22e7 39be 7540 5fbe 45d5 1dbe c24f 8dbe
00000100: 4664 213c 0f1d 4e3e 4314 643e f13b dcbd
00000110: a852 f5bd cf9f 163e 1db0 473e 7c94 e43c
00000120: 5854 b1bd 62eb 9bbe 5df5 ab3d 26fb 2bbe
00000130: 7f11 91be aa9b 64be 40c7 133d 3238 3fbd
00000140: ee97 15be 80e6 703e 32fc 773e 868a cc3d
00000150: 52a2 a6be 7363 e7be 9b10 453e 7cfc 7c3e
00000160: fcd3 673e df74 7a3e 91bd 503e 1ee8 d13e
00000170: d2a3 01bc 0c22 4a3e b113 45be 33c5 acbe
00000180: fc73 b3be 3953 f23d 4d69 82be 6989 b63d
00000190: ac2a a23d 7767 61be 9bf7 acbd a717 633e
000001a0: 72a9 b5bc 3ac9 92bd 0fd8 1b3d a306 6fbe
000001b0: e8d3 a23e bc32 a23c 8de1 88be f982 843e
000001c0: 5b9b 53be 5ed2 2ebe bd45 a73e 129c 873e
000001d0: 064a 1c3c 635b 7b3e ee27 9f3e 1422 5bbe
000001e0: 3894 b33e 8d38 56bd f37d 4d3b 1e46 0dbf
000001f0: 369b 8e3e 664a 78be b7f8 2e3d db98 e93c
00000200: f624 6f3d 5cd2 adbe 3943 6fbe 7aa8 593d
00000210: 1e8e 803e 9e73 0b3e 5636 96bd 4a4e 483e
00000220: 2452 18bd 45fa acbe 370d c23e 9a72 8cbd
00000230: b614 ffbd 8ea7 8c3e ce91 863e 464c babd
00000240: 16b4 b8be f982 adbe 59af 2fbe c368 dbbd
00000250: dc02 3cbe ba0f 453e e916 8a3e b924 5e3e
00000260: 2cde d4bc 15c0 b43e a86d 41be 5a7a 403e
00000270: d9c1 443e a515 91bd fc7a be3e 3209 7cbc
00000280: 424c a6be 31ad 0dbf 3ded 5f3e d318 b13e
00000290: 803d 1f3e 7833 ebbd cc5b 15be a184 3bbe
000002a0: 9194 39be 786a ae3c b11d ca3e 0067 923d
000002b0: 3cfe a93e fb60 283d 1f43 563e 9ccf ae3e
000002c0: f4f6 743e 2fc7 1abe fb97 eebd 2f02 4c3e
000002d0: 725b a13d d3e5 8abe 06bd a9bd eb38 863e
000002e0: 4692 7e3e fdbc 7fbe 2946 f0bd 6c0a 6fbe
000002f0: 1b01 e0be 366b 513e 8d6c 25be c485 b83d
00000300: 65a9 92be d57c df3d a82c b13e f9aa 7dbe
00000310: 4cf0 773d 3770 07be 47f3 eebd 19cf b93e
00000320: ac39 9b3e 6b39 f9bd dede a2be 7b0b 403e
00000330: d4b3 bf3e bc07 3c3d 8537 f9bd ee6d 893d
00000340: 1c35 d1be 4be0 c73d e8ab b8be 5cb0 bf3e
00000350: 9df6 3e3c 2e91 b4be fe63 a63d 2a0b 023e
00000360: b347 273e b048 3dbd b56c cfbe 986e 223e
00000370: 18ba 2cbe 5471 59bd 7686 cfbd bac6 783e
00000380: 8aa0 6cbe 6f41 573e b3ae 09bd 5e2a 743e
00000390: adcc 123e 9412 86be 4b6e aabe 6f4f 3d3d
000003a0: 4624 a83e 124e 4bbe 7712 15be 7d4c 2f3e
000003b0: c5d9 fdbd d131 81be 29c8 bd3d e317 c13d
000003c0: 2468 c1be eb70 593e d44f 3e3b 207d 7d3e
000003d0: 513f 5c3e 9e4b 51bc 17a0 623d 6794 2dbe
000003e0: eefa 573e 1748 9f3e 20ea 913e 5ef8 893e
000003f0: f87a f2bd f734 68be 1e95 52bd b4d2 2dbe
-0.14000207 -0.2087132 0.17004201 0.01738689 -0.11834551 0.01936999 -0.1040485 0.2814059
-0.052761417 0.16276577 -0.20416929 -0.26694766 0.20474376 -0.0369991 -0.33509693 0.23366757
0.048841074 0.19624451 -0.034378413 0.32418078 -0.35261524 -0.18329665 0.24587007 -0.34030443
-0.049469046 0.07830585 -0.049946956 0.09331418 -0.20800199 -0.16496752 -0.2899695 0.31700596
0.25059325 0.25840306 -0.19046336 0.24448808 -0.2814635 0.31683847 -0.29852122 -0.31000227
-0.044084303 0.31026942 -0.16261171 0.035533253 0.3703046 0.41692773 0.35758272 -0.2105294
0.26344112 0.21618752 -0.07413516 0.17014521 0.038521733 -0.12564309 -0.34885824 0.0003177623
0.18858434 0.13254915 -0.026661744 -0.29982027 -0.18154576 -0.21801932 -0.15413387 -0.27599913
0.009850567 0.20128272 0.22273354 -0.107536204 -0.11978656 0.147094 0.19500776 0.027902834
-0.086586654 -0.3045302 0.08396409 -0.16795024 -0.2833366 -0.22325006 0.03607869 -0.04668445
-0.14608738 0.23525429 0.24217299 0.09987359 -0.32545716 -0.4519306 0.19244616 0.2470569
0.2263946 0.24458645 0.20384814 0.40997404 -0.007912593 0.1973955 -0.19245793 -0.337442
-0.35049427 0.1183228 -0.25470963 0.08912928 0.07918295 -0.22012125 -0.084456645 0.22176991
-0.022175524 -0.07167287 0.038047846 -0.23342375 0.31802297 0.019799583 -0.26734582 0.25881174
-0.20664732 -0.17072436 0.32670394 0.2648626 0.009539133 0.2454658 0.3108515 -0.21399719
0.3507402 -0.052300025 0.003135559 -0.55185115 0.27852792 -0.24247131 0.04271766 0.02851527
0.058384858 -0.33949554 -0.23365487 0.053139187 0.25108427 0.13618323 -0.073345825 0.19561115
-0.03718771 -0.3378469 0.37900707 -0.06857796 -0.12455122 0.27471584 0.26283115 -0.09096579
-0.36074895 -0.33888987 -0.17156734 -0.10713341 -0.18360466 0.1924428 0.26970604 0.21693696
-0.025984846 0.35302797 -0.18889487 0.18796673 0.19214572 -0.070842065 0.37203205 -0.015383052
-0.32480055 -0.55342394 0.21867843 0.34589252 0.15550804 -0.11484426 -0.14585799 -0.18312313
-0.1812308 0.021291003 0.39475778 0.07148552 0.33201778 0.041108113 0.20924042 0.34142768
0.2392233 -0.15115045 -0.11650082 0.19922708 0.0787877 -0.27128467 -0.082880065 0.262153
0.24860486 -0.24974437 -0.11732132 -0.2334382 -0.43750843 0.20451054 -0.1615469 0.09009889
-0.28644863 0.10912482 0.34604383 -0.24772252 0.0605319 -0.132264 -0.11667495 0.36290815
0.30317438 -0.12169155 -0.3181066 0.1875438 0.37441885 0.045905814 -0.12168793 0.067104205
-0.40860832 0.09759577 -0.36068654 0.3743924 0.011655477 -0.35267013 0.08124541 0.12699571
0.16335945 -0.0462119 -0.40512624 0.158625 -0.16867864 -0.053086594 -0.10133068 0.24294558
-0.23108116 0.21021055 -0.03361387 0.23844287 0.1433589 -0.2618605 -0.33287272 0.046218332
0.32840174 -0.19854 -0.14557825 0.17119022 -0.12395052 -0.2523332 0.09266693 0.09428384
-0.37774765 0.21234481 0.002903928 0.24754763 0.21508528 -0.012774376 0.055328455 -0.16951142
0.21091816 0.31109688 0.28498936 0.26947302 -0.11839861 -0.22676454 -0.05141174 -0.16974908

layers.1.running_var f4 [256]
00000000: 386f e140 60b0 6640 9c3d 8c40 44c9 993f
00000010: df7a d13e 7817 863f 07d6 953f 2b81 933f
00000020: 9779 813f 6468 e33f 02ea 0f3f 915e 243f
00000030: 2668 523f dee0 943f 48d4 0a3f 0882 bf3f
00000040: 3b0c 883f acb1 4c3f 6b15 8f40 d122 263f
00000050: 2ec8 ec3f 4d0d 603f 2af6 df42 b88d 433f
00000060: 4678 1340 9208 b63f e87c 9640 1393 8a3f
00000070: 023b e042 ece8 5e3f 4be6 5c42 61dd 993f
00000080: cc8c 4341 abf1 be3f 23ee 9f3f 3d6b ce3f
00000090: 561e a43f c7b3 383f dbd1 cb3f cc79 e342
000000a0: 667f 6540 591a 9e3f f6ec ba3f 4b44 b93f
000000b0: 40a2 1940 8c43 e53f af0e 0940 d844 b63f
000000c0: c865 2240 c18c 9c3f 5c6c 6842 e1d1 9040
000000d0: 3398 973f a386 573f f98f 2641 bb66 3b40
000000e0: e3bb eb3e 322b 9740 9fda e840 52d3 8e42
000000f0: 1e59 1a3f 2546 0243 45de 8340 4caf 9b3f
00000100: 3439 0440 c097 313f e6f1 113f f209 ea3f
00000110: 5a42 173f 5354 0040 8d2c cf42 fb11 0b40
00000120: eb38 9b40 dc16 7d3f 379e b83f 25d3 213f
00000130: f199 9040 9714 7040 aa12 203f e9b5 833f
00000140: eb95 7940 fed7 813f d144 963f 6fcd e042
00000150: fa59 2440 81e0 8d3f 7bf5 1641 6d77 7241
00000160: 7da2 e83e eff3 7c40 44fb 1b3f eb61 6040
00000170: bc03 423f e699 493f 85d3 6f40 be04 1940
00000180: b015 c23f 0856 3d40 6e41 9c3f d1c6 5040
00000190: efcd 8a3f 677a 3b40 501e f03f ea6d 2340
000001a0: 4edb 793f 2607 063f c9e6 253f 4547 8c3f
000001b0: c578 db3f d380 ef3f c976 e03f 991b 3642
000001c0: 7497 2e40 570b c53f 95a9 493f da2b 8640
000001d0: 6219 163f 635f 2b3f 7b9a 6840 6f0e 2f41
000001e0: 9953 aa3f 6985 963f bc2c 8642 74ae 623f
000001f0: 5083 c23f c30f 5940 4401 9e3f c720 553f
00000200: f014 533f 6751 aa3f 25a1 f740 a95c 853f
00000210: e99d 9540 9d3c 943f 83fe 0b3f 2f03 a73f
00000220: 82b6 283f 0309 1041 4e64 8b40 f5c7 943f
00000230: fd6e 133f 21f0 9e3f 4764 0840 449a 0040
00000240: b4d2 bd3f 2897 f542 8249 a13f 7052 7f3f
00000250: 8bba 9f40 3f6c b63f 3294 db3e 210e 9640
00000260: 3660 d93f a236 3d40 932c 0143 ef68 a53f
00000270: ce5c c43e 2e17 8b3f 9974 143f e15e e540
00000280: 6659 bf3f 1dfb 853f d1bc eb3f e252 0d43
00000290: f724 ce3f 04e6 1e3f ed65 753f 8574 a23f
000002a0: 0826 8a3f 0f74 a440 3528 9440 6514 583f
000002b0: e380 ef40 985f 313f 36bc 6742 db1f 9e3f
000002c0: 645e 0841 44a5 a13f f73f 5b3f 8c1c 4c3f
000002d0: fb1c fe3f 3366 3640 8282 b13f 3e3d dc3f
000002e0: 23aa 9240 524a 8940 4908 483f e877 2441
000002f0: d0d6 653f 393a 8e40 8de6 543f 2829 d63f
00000300: a810 1f3f e197 f03f 8886 f43f a992 b13f
00000310: ac96 6040 e0c7 ec42 3b21 993f 2b4a 8b3f
00000320: e5c8 ed42 07e5 6f3f 05f1 903f d4c7 983f
00000330: 394b b13f b790 3b3f 9c93 433f 4d6c e13f
00000340: f1da 0440 751e 723f 896a 483f 9a99 c83e
00000350: c7a7 a83f f68f 3e40 4db4 853f 17d0 f63f
00000360: 783f 5d42 9d95 813f bf3f 0543 bd2d 7240
00000370: 2dd8 a43f 59c2 193f 429a b93f e8a0 423f
00000380: 92c4 3e3f 7ed5 a53f d2a4 da3f acb3 b83f
00000390: 32ab 5d3f 6b0c a03f 3028 c23f 4f8b 5741
000003a0: 0a15 013f 82da 423f 46ef 3940 9619 0f40
000003b0: 45c8 0b3f cdc9 4a42 eb08 993f 9037 4a3f
000003c0: 9f81 c83f 228a c23f ea24 163f 028e 1440
000003d0: 1575 9b41 1a54 663f 4fe3 b63f 4337 3f3f
000003e0: f9f2 af42 3e74 8240 b55d de3f 9ad4 163f
000003f0: 69da 5940 bbeb 943f d28c 793f b63c 9d3f
7.0448265 3.604515 4.3825207 1.2014546 0.40914056 1.0475912 1.1705941 1.1523794
1.0115231 1.7766232 0.5621644 0.64206797 0.8219017 1.1631124 0.54230165 1.4961557
1.0628732 0.79958606 4.4713645 0.64896876 1.849859 0.87520295 111.98079 0.7638812
2.304216 1.4221365 4.7027473 1.0826133 112.11525 0.8707416 55.224895 1.2020684
12.221874 1.4917501 1.2494549 1.6126477 1.2821758 0.7214932 1.5923418 113.737885
3.5859008 1.2351791 1.4603565 1.4473966 2.400528 1.7911239 2.1415212 1.423976
2.5374622 1.2230455 58.10582 4.52562 1.1843323 0.84189814 10.41015 2.9281452
0.46041784 4.724023 7.276687 71.412735 0.6029223 130.274 4.1208825 1.2162871
2.0659914 0.6937218 0.5700973 1.8284285 0.5908562 2.0051467 103.58701 2.1729724
4.850698 0.98863006 1.4423283 0.63212806 4.5187917 3.7512567 0.6252848 1.028989
3.8997753 1.014404 1.1739751 112.40124 2.5679917 1.1084138 9.434932 15.154157
0.4543647 3.9523885 0.60930276 3.5059764 0.7578695 0.78750455 3.7472851 2.3909144
1.5162868 2.958376 1.2207468 3.2621348 1.0844096 2.9293458 1.8759251 2.5535836
0.9760026 0.5235466 0.64805275 1.095925 1.7146231 1.8711189 1.753625 45.52695
2.727994 1.5394086 0.78774387 4.192853 0.5863248 0.66942424 3.6344287 10.941024
1.3306762 1.1759464 67.08737 0.88547444 1.5196323 3.391587 1.2344136 0.8325314
0.82453823 1.3306092 7.738421 1.0418903 4.675526 1.1580998 0.5468523 1.3047847
0.65903485 9.0022 4.355994 1.1623522 0.5759123 1.2417032 2.1311204 2.0094156
1.4829926 122.79523 1.2600558 0.99735165 4.9915214 1.4251784 0.42886502 4.6892247
1.6982486 2.9564595 129.17412 1.2922648 0.38352054 1.0866449 0.57990414 7.167832
1.4949157 1.0467259 1.8416997 141.32376 1.6105031 0.62069726 0.9585865 1.2691809
1.0792856 5.1391673 4.629908 0.8440612 7.4844832 0.6928649 57.9338 1.2353472
8.523045 1.262856 0.8564448 0.7973106 1.9852594 2.8499877 1.3867953 1.720619
4.5832686 4.2903223 0.7813764 10.279274 0.897809 4.4446073 0.8316429 1.673131
0.6213479 1.879635 1.9103556 1.3872882 3.5091963 118.39038 1.1963266 1.0882009
118.89237 0.93708843 1.1323553 1.1935983 1.3851081 0.7326769 0.7639711 1.7611176
2.0758631 0.94577724 0.7828756 0.3917969 1.3176202 2.9775367 1.0445648 1.9282254
55.31198 1.0123783 133.24901 3.7840416 1.2878472 0.60062176 1.4500201 0.76026773
0.7451869 1.2955778 1.7081549 1.4429832 0.8658935 1.250379 1.5168514 13.471511
0.5042273 0.76114666 2.905229 2.2359366 0.5460246 50.69707 1.1955847 0.7899103
1.5664557 1.5198405 0.58650076 2.3211675 19.432169 0.8997208 1.4288119 0.746937
87.974556 4.0766897 1.7372347 0.58918154 3.4039557 1.1634439 0.974805 1.2284153

layers.4.weight f4 [128, 256]
00000000: 52dc 05bf b7da af3d bb15 ad3d 5db2 d5bf
00000010: baa3 a5be 1eec 223d 2205 3cbe 3392 513d
00000020: c540 15be f2d6 50bd 0192 c13e e7ca 83be
00000030: e13b 0abf 15ed a2be 92e5 f0bc d0a5 9fbe
00000040: 770a b6be a8d4 b0be 34eb afbe b96d 01be
00000050: 9ada 49be acca 0fbf ab33 c1be 6a18 4f3e
00000060: 41bb 603c 4d1f 553f 368f 7ebc 210a d6be
00000070: a0f8 1bbf 7333 d23e 9c36 1cbf a168 eebd
00000080: a7bf 0a3d d1ea d13c b8b3 3e3e 9de0 163d
00000090: 1c3b 5cbe a105 003d 7a39 4bc0 4359 72bf
000000a0: e10c dabd 34c4 f3bf e1da c83e 6046 04be
000000b0: 56d4 bcbf 415b 33bc 2609 e13e 05d8 cebf
000000c0: 27ba b7be 8fa6 38be de12 4dbf 328c 2b3c
000000d0: dd20 363e 4fdf 073f 81dd fd3d c829 ce3c
000000e0: 97a0 1cbd cc9b 03bf 1fee b2be 6223 1dbf
000000f0: a71c 3a3e edd3 0ebf 4aae c2bd 2425 6b3e
00000100: df84 233c 124f 14be 80f6 27be f1f0 3ebe
00000110: c95a 3ebd 8e3d 93be 22d5 ddbe 72a1 fd3c
00000120: ccfb 30bf 5364 26be 50ed 393f 8c2e 02bd
00000130: ab2b 873d 06bc 42bd 8663 013e fe9f 8ebe
00000140: 6b65 28be f422 383e 52c4 08c0 5ec9 40bf
00000150: 6abe d7be 5b1a 2f3f a0ef 913b 7174 d13c
00000160: 46ff 833d 6a1a 2ebf 11b2 9d3e 5b8a 203e
00000170: f644 363e 9229 6dbb c348 81be 8931 193d
00000180: 285b d33c c5b6 0fbe 651e 18bd 6e75 3fbe
00000190: 9031 b9be 0a63 43bd 33e3 5bc0 9cbe 14bf
000001a0: 3285 38be 26b5 f53d bf8a fb3d a095 02c0
000001b0: c62f 5b3d b6f2 82bd 0856 ae3e 85ce 72bf
000001c0: a311 d83e ff56 3c3e 710b d2be 3757 513c
000001d0: 2064 f2be 2702 babe ae9c c2bf 9973 44bc
000001e0: 80d0 1abf dce1 be3d 83ee 60bf 4fa2 e2bb
000001f0: 167f 1d3e 2245 30be 1ca0 923e 89d6 573d
00000200: dddc 863f 315f aa3f 76fd 6c3d 6861 083f
00000210: 7230 86bd f98f 883d ed94 e63c 1634 21be
00000220: be27 bcbb 0aa0 10be bee2 16bc 8c8d 6c3e
00000230: fb81 be3d b18e 0e3f 77bd f0be 1b3a 5b3d
00000240: 5e28 8a3f 2e4e 36bf 877b 6b3e e05d 99ba
00000250: 4aa7 b93c bedd 5cbe a4bc 99bc 4f28 323c
00000260: 5be2 3d3d 53d7 de3d b8c4 36bd f604 0e3f
00000270: fbdd f33d b136 033f 3193 58be d607 0cbf
00000280: b1eb 18bf 1f43 373f 3664 abbe 2534 1cbf
00000290: e495 813e e980 06be f008 28be f964 2b3f
000002a0: de5a d7be 94fb 6cbd 6729 163e ee41 16be
000002b0: 0f89 e2be a8b0 92be a621 26bf 752e 83be
000002c0: b9d8 42bf 1014 6c3f bb64 3fbc ebbd c5bc
000002d0: fdf2 613c 5a5e 3b3e 31a9 04be 400c 173f
000002e0: 6049 6dbd 49f0 443e 25cc 953d d720 013e
000002f0: 1ee6 903c 1bbf 593e 2ba4 d53d 1e46 ebbe
00000300: 3c23 8dbb adc4 e43d aab2 80be f66c 1abc
00000310: c33f aebc 1b62 a3be d757 fd3c f9b4 39be
00000320: b160 26bf 76ff 3f3d f556 b2be bf7b 65bd
00000330: 5166 a23e 9fc3 ca3e 6887 50be 2456 1f3e
00000340: d341 a4be 7c74 99bf f26e a93d fdff f83e
00000350: 3b81 cabd 1132 a9be 4e0e fcbd 1523 913e
00000360: 2ecd 7cbf b445 a1be 905f 40bf ac15 363b
00000370: 2261 063f bd58 cd3e 3549 02be 5ab3 2dbd
00000380: cc55 93bc c6f0 583e 0eda 143f 682e b33d
00000390: 2180 013e a099 773d f037 ac3e 3143 40bf
000003a0: 3c6f 4bbe 794a 65bd 607e 5ebd 8e1b 0b3e
000003b0: 3092 bbbe 40fb 47bf 75c1 89be e685 9a3d
000003c0: c35c b03f 2a3f 8c3d a49b 1c3d 90b9 c3bd
000003d0: d7b2 723b 6b05 38be 88c9 3dbd 91da 753e
000003e0: 2272 17bf 0f74 67be 173c b0bd ed79 f4bd
000003f0: 76a0 1cbe 97e0 1cc0 376c f2be 19da c43f
-0.5228931 0.085866384 0.084514104 -1.6695057 -0.32351476 0.03977596 -0.18361333 0.051164817
-0.14575489 -0.050986238 0.37806705 -0.2574074 -0.5399762 -0.31821504 -0.029406343 -0.31181192
-0.3555486 -0.34537244 -0.34359133 -0.12639512 -0.19712296 -0.5616863 -0.37734732 0.20224157
0.01371652 0.83250886 -0.015537074 -0.41804603 -0.60926247 0.41054878 -0.6102083 -0.1164105
0.03387418 0.025624665 0.18623245 0.0368353 -0.21506923 0.03125537 -3.175383 -0.9466745
-0.10646988 -1.9044251 0.3922949 -0.12917471 -1.47523 -0.01094705 0.43952292 -1.6159674
-0.3588421 -0.18032287 -0.80106914 0.010470437 0.17785974 0.53075117 0.12395764 0.025166407
-0.038239088 -0.514096 -0.34947297 -0.61382115 0.18174993 -0.55792123 -0.09505899 0.22963387
0.009980409 -0.14483288 -0.16402626 -0.186466 -0.0464733 -0.287579 -0.4332667 0.030960772
-0.6913421 -0.16249208 0.72627735 -0.03178267 0.06600126 -0.047542594 0.12635621 -0.2785644
-0.16444938 0.17982084 -2.1369824 -0.7530726 -0.42137462 0.6839959 0.0044536144 0.025568219
0.06445174 -0.68009055 0.30799916 0.15677778 0.17799744 -0.0036188108 -0.25250825 0.037400756
0.025800303 -0.14034565 -0.03713836 -0.1869714 -0.36170626 -0.047701873 -3.4357421 -0.58103347
-0.1801956 0.11997442 0.12282323 -2.0403824 0.053512357 -0.0639395 0.34050012 -0.94846374
0.42200956 0.18392561 -0.41024354 0.012777141 -0.47342014 -0.36329767 -1.5204065 -0.011990451
-0.60474396 0.09320423 -0.8786394 -0.0069163213 0.1538051 -0.17213872 0.2863778 0.05269483
1.0536152 1.33103 0.057858907 0.5327363 -0.06552209 0.066680856 0.028147185 -0.15742525
-0.0057420423 -0.1412355 -0.009209333 0.23100871 0.093021356 0.5568648 -0.4701955 0.05352221
1.0793569 -0.7121304 0.2299634 -0.001170095 0.022662777 -0.21568963 -0.018766709 0.010873868
0.046358448 0.108809136 -0.0446212 0.5547632 0.11907574 0.5125533 -0.21149899 -0.54699457
-0.59734637 0.71586794 -0.33474892 -0.61017066 0.2530967 -0.13135113 -0.1640966 0.6695095
-0.42061514 -0.05785711 0.14664231 -0.14673588 -0.44245192 -0.28650403 -0.64895093 -0.2562138
-0.7611194 0.9221811 -0.011681731 -0.024138412 0.013790843 0.18297711 -0.12955166 0.59003067
-0.057931304 0.19232287 0.07314328 0.12610184 0.017687853 0.21264307 0.10431703 -0.45951933
-0.004307179 0.111703254 -0.2513631 -0.009425392 -0.021270638 -0.31910786 0.030925674 -0.18135442
-0.6499129 0.046874486 -0.34831968 -0.056026217 0.31718686 0.39602372 -0.20364153 0.15560204
-0.3208147 -1.1988673 0.08273114 0.48632804 -0.0988793 -0.3304601 -0.12307416 0.28347078
-0.9875058 -0.31498492 -0.75145817 0.0027783914 0.5249196 0.40106764 -0.12723239 -0.04240737
-0.017985247 0.21185598 0.58145225 0.08749086 0.12646534 0.060449243 0.33636427 -0.75102526
-0.19866651 -0.055979226 -0.05431974 0.1358473 -0.3663497 -0.7811775 -0.26905409 0.0754507
1.3778309 0.06847985 0.038234368 -0.095568776 0.0037032866 -0.17970817 -0.046334773 0.24009158
-0.5915853 -0.22602867 -0.08605211 -0.11937318 -0.15295586 -2.4512079 -0.47348186 1.5379058

layers.4.bias f4 [128]
00000000: 4a54 a03d 76e4 b2bc 5bdb 303c f5aa 903d
00000010: 634f 963c 65fa 4cbd f24d a5bb 34d6 ffbc
00000020: daf9 953a 94d9 463d e85f af3b ba0f 1a3c
00000030: be77 bf3d b4db 883c 63f6 523d 4331 71bc
00000040: c15d 8dbd 4a53 ff3b a6c2 733d a40f 0cbd
00000050: 89c5 d93d cfb9 b53d 8ab4 ad3d 6941 6f3d
00000060: 428e e03d cf36 923d 6fd3 c03d 1080 e3bc
00000070: e419 173c 9814 5fbd ff8f 4f3e b5f9 98bc
00000080: de7e b5bc 8609 b33d 72ec a9bd e1bb c73c
00000090: bcbd 41bd a4b4 25bd 8f42 3b3d fed9 81bd
000000a0: edd7 663c a315 773c d133 333e c2e7 aabc
000000b0: 7702 42bd 083c 183d dacb 143e d30d 7bbc
000000c0: 5923 7c3d fd64 223d dcd2 093e 66ae 4b3b
000000d0: e56b 263d 9fa6 393d d954 76be f201 873c
000000e0: ca0a 35bd 3078 323d 52e8 273d 1a08 eb3b
000000f0: 132d 24bd 97e0 f53c 700c 653d 8a5b 943d
00000100: af22 7dbc a1bf 9dbc 20f3 ea3d 10b2 6b3d
00000110: 702a 003e 8474 013e 5bb4 b2bc fb22 55bd
00000120: d863 5e3d 13dc ac3c fb77 15bb 676c c03c
00000130: 1525 3c3c 62cf 2bbd 126f 5f3d 4bbf e93a
00000140: 59b8 29bc de97 febc fd62 363d f7af d33d
00000150: ea8d d13c e8ec 543c 7188 b73b 7cd4 283d
00000160: 531b 993c ab17 73bd 0466 a83c 50a6 103e
00000170: 1850 003e 5563 0b3c 35d3 02be 052c e1bc
00000180: d813 123d ba41 1f3e 04ed 953d 5f50 1a3e
00000190: ac9b 01bc 3120 9c3d 86f6 573d 83c9 553d
000001a0: d4f2 febc 782f 2abd 0d80 033e 0018 8a3d
000001b0: bed0 f43d ad1f 913d cbfa c93b 30c0 963c
000001c0: 5ee7 2a3e 7e6e d7bd 5e8e c8bd 5917 523b
000001d0: a219 773d 3243 253b a339 613e a114 5ebd
000001e0: 2ba2 1cbe ef6d 3b3e 1a3d 89bc fc7a e5bc
000001f0: e9bc 71bc 3760 1f3d e520 3cbd e932 a83d
0.07828577 -0.021837454 0.010794486 0.070638575 0.018348401 -0.050043482 -0.005044692 -0.03123007
0.001144226 0.048547342 0.005352009 0.009403164 0.09349011 0.016706325 0.051504504 -0.014721218
-0.06902648 0.0077919113 0.059511803 -0.034194604 0.1063338 0.08873331 0.08481701 0.05841199
0.109646335 0.0713936 0.09415328 -0.027771026 0.009222481 -0.054463 0.20269774 -0.018673757
-0.022155222 0.08742051 -0.082970515 0.02438158 -0.047300085 -0.040455475 0.045717772 -0.06340407
0.014089567 0.015080842 0.17500235 -0.020862464 -0.047365632 0.037166625 0.14530888 -0.01532312
0.061557148 0.03964709 0.13459343 0.0031079291 0.04063024 0.045324918 -0.24055804 0.01648042
-0.044199742 0.04357165 0.040993042 0.0071725966 -0.04008205 0.03001432 0.055920064 0.07244022
-0.015450164 -0.019256415 0.11472154 0.05754286 0.12516189 0.12642103 -0.021814516 -0.052035313
0.054294437 0.021101033 -0.002280711 0.02348919 0.01148345 -0.041945823 0.054549284 0.0017833499
-0.010358893 -0.031078275 0.044527996 0.10336297 0.025580365 0.012995936 0.005600982 0.041218266
0.018689787 -0.059348743 0.020556457 0.14125943 0.12530553 0.008507569 -0.12775882 -0.02748681
0.035663456 0.15552416 0.07320598 0.15069722 -0.00791065 0.076233275 0.052725337 0.05219413
-0.031121649 -0.041549176 0.12841816 0.06742859 0.11953877 0.0708612 0.00616393 0.018402189
0.16689822 -0.105191216 -0.097927794 0.0032057373 0.06032718 0.0025217053 0.21994643 -0.054218892
-0.15296237 0.18303655 -0.016752768 -0.028012745 -0.014754512 0.038910117 -0.04592981 0.08212835

layers.5.weight f4 [128]
00000000: 0238 9c3f 0690 c33f b7ee 723f d577 a43f
00000010: 2cbd 703f e6d2 383f a449 7b3f 8cfa 9d3f
00000020: fee5 803f 4e38 693f 46f1 853f 09e6 3b3f
00000030: 6c3c d93f 176d 343f 492b a83f e144 8f3f
00000040: 14a6 763f ffeb c53f 0afc c83f 34f8 683f
00000050: 1abe cb3f 4d12 b03f 76f0 0d40 970e c63f
00000060: 0faa 5240 1ba1 e23f c9f7 5f3f ce8c 8a3f
00000070: ce29 363f 03e4 4d3f 87e4 eb3f 430f 6d3f
00000080: 7ebc a33f b32b d83f 0693 7d3f 6f33 713f
00000090: 30cc 153f 25bb 5b3f 8cdb 973f e16b 683f
000000a0: ba5c 353f 2587 8e3f 7b52 983f 1d17 603f
000000b0: cd38 823f fb83 2b3f dfaf 9f3f 7c0a 6b3f
000000c0: 0ca1 933f cd6d 833f d154 7c3f 483c 2c3f
000000d0: 4098 213f 2de1 653f 4236 0f40 541c 553f
000000e0: 0904 453f 4b01 f43f b099 763f 088c 5f3f
000000f0: 1669 8a3f 3854 a03f 4a04 8b3f b53c af3f
00000100: fd59 ae3f 993c ff3f e965 ad3f f04c 3d3f
00000110: 0180 0640 c1b2 cb3f 268d 903f fe81 b63f
00000120: 5881 393f 975e 6f3f 6972 5c3f 75bb 723f
00000130: 5a95 903f a28e b63f ad5e 893f 7fb6 893f
00000140: 057e 883f b9d3 953f 19ee a73f ea80 0240
00000150: 92f6 2b3f 42e3 0b3f b555 5c3f c760 b93f
00000160: 45b7 5a3f 4e55 933f 63ec 893f d617 f03f
00000170: e3dd 803f 70ae 773f 4f71 8d3f fa88 933f
00000180: e50e bb3f c490 ae3f 36f1 933f 5cce 0e40
00000190: 0d5a 663f f259 3040 30d0 6a3f e8c9 883f
000001a0: 12dd b23f 586f d53f 0e06 ea3f 85ea 3140
000001b0: 6076 a83f b110 883f b498 603f 84a6 853f
000001c0: 5466 0740 e14a 983f d4e0 ba3f 586e 813f
000001d0: 3999 ba3f f499 9c3f c3ce a33f 2612 a03f
000001e0: e86e 0140 1ffd 6540 2fdc 3e3f ebf3 883f
000001f0: 612c 9d3f bdb2 db3f f996 843f 06c8 943f
1.2204592 1.5278327 0.948955 1.284907 0.94038653 0.72196805 0.9815924 1.2342086
1.0070188 0.9110154 1.0464256 0.7339788 1.6971564 0.7047896 1.313821 1.1192895
0.96347165 1.5462645 1.5701916 0.9100373 1.5917389 1.3755585 2.2178016 1.5473202
3.2916296 1.7705415 0.87487465 1.082422 0.7115754 0.80426043 1.8429116 0.9260141
1.2791898 1.6888336 0.99052465 0.94219106 0.5851469 0.85832435 1.1863875 0.9078961
0.70844615 1.1134993 1.1900171 0.8753527 1.0173584 0.6699826 1.2475547 0.9181287
1.1533523 1.0267884 0.9856692 0.6727948 0.6312294 0.89796716 2.2376866 0.8324635
0.7695928 1.9062895 0.9632826 0.87323046 1.081332 1.2525702 1.0860684 1.3690401
1.3621212 1.9940368 1.3546726 0.7394552 2.1015627 1.5913926 1.1293075 1.425842
0.7246299 0.9350371 0.86112076 0.94817287 1.1295578 1.4262278 1.0732018 1.0758818
1.0663458 1.1705238 1.3119537 2.0391183 0.6717311 0.5464364 0.8606828 1.4482659
0.854359 1.1510408 1.0775265 1.8757274 1.0067714 0.96750546 1.1050204 1.1526177
1.461392 1.3637929 1.1557987 2.2313452 0.89981157 2.7554898 0.9172392 1.0686617
1.3973715 1.6674604 1.8283098 2.779939 1.3161125 1.0630094 0.87733006 1.0441442
2.1156206 1.1897851 1.4599862 1.0111799 1.457801 1.2234483 1.2797474 1.2505538
2.0223942 3.5935743 0.74554724 1.0699438 1.2279168 1.7163922 1.0358573 1.1623542
